…
 valid answer. Would it be possible to get a model with the input shapes showing the performance difference?", "marked": 0}
{"docs": "pytorch", "category": "Memory Format", "thread": "CUDA out of memory for a tiny network", "href": "https://discuss.pytorch.org/t/cuda-out-of-memory-for-a-tiny-network/141299", "question": "I have a tiny CNN model that gives this summary:\n----------------------------------------------------------------\n        Layer (type)               Output Shape         Param #\n================================================================\n            Conv2d-1         [-1, 32, 222, 222]             896\n              ReLU-2         [-1, 32, 222, 222]               0\n         MaxPool2d-3         [-1, 32, 111, 111]               0\n            Conv2d-4         [-1, 32, 109, 109]           9,248\n              ReLU-5         [-1, 32, 109, 109]               0\n         MaxPool2d-6           [-1, 32, 54, 54]               0\n            Conv2d-7           [-1, 32, 52, 52]           9,248\n              ReLU-8           [-1, 32, 52, 52]               0\n         MaxPool2d-9           [-1, 32, 26, 26]               0\n          Flatten-10                [-1, 21632]               0\n           Linear-11                    [-1, 1]          21,633\n          Sigmoid-12                    [-1, 1]               0\n================================================================\nTotal params: 41,025\nTrainable params: 41,025\nNon-trainable params: 0\n----------------------------------------------------------------\nInput size (MB): 0.57\nForward/backward pass size (MB): 35.24\nParams size (MB): 0.16\nEstimated Total Size (MB): 35.97\n----------------------------------------------------------------\n\nThe 
…
f forward(self, x, hidden=None): \n        _ = hidden\n        x, hidden = self.lstm1(x, hidden)\n        x = self.dropout(x)\n        x, _ = self.lstm2(x, _)\n        x = self.dropout(x)\n        x = self.dense1(x)\n        x = self.flatten(x)  \n        return self.dense2(x), hidden\n\n==========================================================================================\nLayer (type:depth-idx)                   Output Shape              Param #\n==========================================================================================\n\u251c\u2500LSTM: 1-1                              [100, 1, 96]              21,120\n\u251c\u2500Dropout: 1-2                           [100, 1, 96]              --\n\u251c\u2500LSTM: 1-3                              [100, 1, 96]              56,064\n\u251c\u2500Dropout: 1-4                           [100, 1, 96]              --\n\u251c\u2500Linear: 1-5                            [100, 1, 50]              4,850\n\u251c\u2500Flatten: 1-6                           [100, 50]                 --\n\u251c\u2500Linear: 1-7                            [100, 1]                  51\n==========================================================================================\nTotal params: 82,085\nTrainable params: 82,085\nNon-trainable params: 0\nTotal mult-adds (M): 0.08\n==========================================================================================\nInput size (MB): 0.00\nForward/backward pass size (MB): 0.19\nParams size (MB): 0.33\nEstimated Total Size (MB): 0
…
